lrp/model.pth (torch, 291557 bytes, 6 tensors)

0.weight f4 [32, 1, 3, 3]
0	0xbeb55307	-0.35414907
1	0x3dd9aba9	0.10628445
2	0x3e8235c3	0.25431642
3	0x3e40720a	0.18793502
4	0xbe953b54	-0.29146826
5	0xbe25163e	-0.16121766
6	0x3e6ffdd6	0.23436674
7	0xbdb14050	-0.08654845
8	0xbc142387	-0.0090416735
9	0x3e367589	0.17818274
10	0xbe7f190e	-0.24911901
11	0xbe56ffe3	-0.2099605
12	0x3ea6616b	0.324962
13	0x3e3c21e9	0.1837231
14	0xbe9886ec	-0.29790437
15	0x3e4c9f21	0.19982578
16	0xbe9dfd30	-0.3085723
17	0xbea1831d	-0.31545344
18	0xbda14a36	-0.07875483
19	0x3c40ba96	0.011763236
20	0xbd1772a2	-0.036974557
21	0xbd826f34	-0.063688666
22	0xbd2a4fde	-0.041580074
23	0x3e9831fb	0.29725632
24	0xbe9178f4	-0.28412592
25	0xbdc72a49	-0.09724862
26	0xbe5e93ae	-0.21736023
27	0xbd193d65	-0.037412066
28	0x3dcc3053	0.099701546
29	0xbd9712b9	-0.07376618
30	0x3e732247	0.23743545
31	0xbdd5cb7c	-0.10439202
32	0xbe0e2e52	-0.13884857
33	0x3d3598e4	0.04433526
34	0x3e5f113a	0.21783915
35	0xbdbc7fe9	-0.092040844
36	0xbe2b3268	-0.16718447
37	0xbe0fa234	-0.1402672
38	0x3ba6b50d	0.005087501
39	0xbe002bfb	-0.12516777
40	0xbe806175	-0.25074354
41	0x3e806fb3	0.2508522
42	0xbe780dd4	-0.24224025
43	0xbe0fafe3	-0.14031939
44	0xbe7adbe8	-0.2449795
45	0x3ddeca98	0.108784854
46	0xbd48eae3	-0.04905213
47	0x3d998687	0.07496362
48	0x3e0350f7	0.12823854
49	0x3e59ac5e	0.21257159
50	0x3de8ad5c	0.11361191
51	0xbeabb4fb	-0.33536515
52	0xbbbe3aa1	-0.005805329
53	0x3de6c219	0.1126749
54	0xbeb11ac3	-0.3459073
55	0xbea14111	-0.31494954
56	0xbdaee0c5	-0.08538965
57	0x3e5e2fc0	0.21697903
58	0x3e55a6df	0.20864438
59	0xbe1eef19	-0.15520896
60	0x3e9202b3	0.28517684
61	0xbe8121c0	-0.25221062
62	0x3e9d4663	0.30717763
63	0xbe04ba31	-0.12961651
64	0x3e9c3818	0.30511546
65	0x3e7f72af	0.24946092
66	0x3ea07676	0.3134038
67	0x3bb5557a	0.0055338712
68	0x3bf9baf3	0.007621163
69	0xbea95873	-0.33075294
70	0xbedbb086	-0.42908114
71	0xbe82f1f7	-0.2557523
72	0x3e22613e	0.15857407
73	0x3e241ed0	0.16027379
74	0xbe888007	-0.26660177
75	0x3e92083b	0.28521904
76	0xbea7a9ce	-0.32746738
77	0xbe8de453	-0.2771326
78	0x3e0fee28	0.14055693
79	0xbc83efc4	-0.01610554
80	0x3dd5fd0a	0.10448654
81	0x3e8d74d5	0.27628198
82	0xbe50c7d3	-0.20388727
83	0x3eaffe47	0.34373686
84	0x3dd409c0	0.10353422
85	0x3c1204d7	0.008912287
86	0xbe4a7a50	-0.19773221
87	0xbd63ca8e	-0.055613093
88	0xbdcc5400	-0.09976959
89	0xbe972700	-0.29521942
90	0xbe7920fd	-0.2432899
91	0xbeca7782	-0.39544302
92	0xbde390f7	-0.11111634
93	0xbed8064c	-0.42192304
94	0x3dc9c0d7	0.098512344
95	0xbdecb8bd	-0.115586735
96	0xbe45d6f4	-0.1932028
97	0x3ea6a82f	0.3255019
98	0x3ea2cfb4	0.3179909
99	0xbea6e2d8	-0.32594943
100	0xbe0ddc2b	-0.13853519
101	0xbd84676e	-0.0646504
102	0xbd1ad87a	-0.037804104
103	0xbe2a7372	-0.16645601
104	0x3eb08d7a	0.34482938
105	0xbec4622b	-0.38356146
106	0xbc712c19	-0.014719986
107	0x3ec89f53	0.39184055
108	0x3d5447e0	0.051826358
109	0xbd988391	-0.07446969
110	0xbe5ce06d	-0.21569987
111	0xbd932617	-0.071849994
112	0xbe045e39	-0.12926568
113	0x3d83ef83	0.064421676
114	0x3e5fa1ec	0.21839112
115	0xbe816569	-0.25272682
116	0xbdd0593b	-0.10173269
117	0xbe144bee	-0.1448209
118	0x3e639570	0.22224975
119	0x3ed82d84	0.42222226
120	0xbe5d793a	-0.21628276
121	0xbd880930	-0.066423774
122	0xbde235f4	-0.11045447
123	0xbd84f554	-0.06492105
124	0xbeb5a9ea	-0.35481197
125	0x3c876053	0.016525423
126	0xbe0121ae	-0.12610504
127	0xbcd56dd4	-0.026053347
128	0x3e5ef0f6	0.21771607
129	0x3e777845	0.24166973
130	0x3e82a7f7	0.25518772
131	0x3e98a827	0.2981579
132	0xbce0a053	-0.027420199
133	0xbe12188f	-0.14267181
134	0xbecd2ec2	-0.40074736
135	0xbd8568b8	-0.06514114
136	0xbe778c67	-0.24174653
137	0xbec41e0c	-0.38304174
138	0xbbcd743a	-0.006269959
139	0xbcd76c64	-0.026296802
140	0x3caca43e	0.02107441
141	0x3eb8f3f9	0.36123636
142	0x3d582fb7	0.05277988
143	0x3e02d1b2	0.12775305
144	0x3edd1ce2	0.43186098
145	0xbb2334ae	-0.0024903226
146	0xbebb910a	-0.36634094
147	0xbdde68b8	-0.10859817
148	0x3d12486f	0.03571361
149	0xbe4274a9	-0.18989815
150	0xbd6a03a7	-0.05713239
151	0xbe5d98d4	-0.2164033
152	0xbeabab85	-0.33529297
153	0xbe1b1dcc	-0.15148085
154	0x3e398944	0.18118769
155	0x3e2d7866	0.1694046
156	0x3caffb98	0.021482274
157	0x3e0c775f	0.13717411
158	0x3d287cc1	0.0411346
159	0x3e7ef098	0.24896467
160	0x3e845514	0.2584616
161	0xbea8cdb1	-0.3296943
162	0xbcabaa07	-0.020955099
163	0xbebf4c15	-0.37362733
164	0x3ec62424	0.38699448
165	0xbeb2e68d	-0.3494152
166	0xbb9db084	-0.004812302
167	0xbdadb49b	-0.084817134
168	0x3e5c8684	0.21535689
169	0x3e93ba32	0.28852993
170	0xbdc745ac	-0.09730086
171	0xbe10ffaf	-0.14160036
172	0x3e817602	0.25285345
173	0xbe1143f0	-0.14186072
174	0x3d2d46c5	0.04230382
175	0xbe66597e	-0.22495076
176	0xbddeef4f	-0.10885488
177	0x3dc359d0	0.09538615
178	0x3e80a5cf	0.25126502
179	0xbdcd96c9	-0.100385256
180	0xbcc11a59	-0.023572134
181	0x3d07fd50	0.033200562
182	0xbe0ef477	-0.13960443
183	0xbe438f2a	-0.19097582
184	0x3cbe6a0a	0.023243923
185	0x3e40a562	0.18813089
186	0x3bc1681c	0.0059023034
187	0xbdfb8cc9	-0.12282712
188	0x3ead21c6	0.3381483
189	0xbd520d05	-0.051281948
190	0xbe95084e	-0.29107898
191	0xbdd23c42	-0.102653995
192	0x3db2361c	0.08701727
193	0xbe804ea4	-0.25059998
194	0xbd2e5058	-0.04255709
195	0x3ecc6549	0.39921024
196	0x3e94c395	0.29055467
197	0xbd8dbb47	-0.06920486
198	0x3c88e901	0.016712667
199	0xbd2f744c	-0.04283552
200	0x3a565f06	0.0008177612
201	0x3e3be8d5	0.18350537
202	0x3d8fd2cc	0.07022628
203	0xbe8019f4	-0.250198
204	0xbda56ccb	-0.08077391
205	0xbc21e114	-0.009880323
206	0xbdcdfdef	-0.100581996
207	0xbe9e1cc3	-0.30881318
208	0x3ced3a27	0.028958393
209	0xbc8f59d9	-0.017498897
210	0x3e050ba6	0.12992725
211	0x3e57036c	0.20997399
212	0xbe17002e	-0.14746162
213	0x3dbbe12c	0.091738075
214	0xbe768cb1	-0.24077107
215	0x3ddfc6cc	0.10926589
216	0xbdbef10f	-0.09323322
217	0x3e4a2d7f	0.19743918
218	0xbde569b4	-0.11201802
219	0xbdbcc6ef	-0.09217631
220	0x3e70a880	0.23501778
221	0x3e3080d5	0.17236646
222	0xbeb75a66	-0.35811156
223	0xbcb45d41	-0.022017123
224	0x3e63b970	0.22238708
225	0xbd5e40e0	-0.05426109
226	0xbeb05f56	-0.34447736
227	0x3ca6d727	0.020366265
228	0x3e86603c	0.26245296
229	0xbcff591a	-0.031170417
230	0xbe582270	-0.21106887
231	0xbd99c608	-0.075084746
232	0x3e67ccd3	0.22636728
233	0xbe4cc95b	-0.19998686
234	0xbcf1ab73	-0.029500699
235	0xbd1d23b4	-0.038364127
236	0xbe0f088b	-0.13968103
237	0xbea09dd0	-0.313704
238	0x3e908cb7	0.28232357
239	0x3de644a1	0.11243559
240	0xbe92d204	-0.28675854
241	0x3e730c31	0.2373512
242	0x3e10295f	0.14078282
243	0xbec7dc29	-0.39035156
244	0x3d4acace	0.049509816
245	0x3af97ccc	0.0019034385
246	0x3d4cf662	0.050039656
247	0x3e28bd98	0.16478574
248	0xbe665680	-0.22493935
249	0x3ed12f2d	0.40856305
250	0xbe92a424	-0.28640854
251	0xbe3d172b	-0.18465869
252	0x3e63f6da	0.22262135
253	0x3da06402	0.07831575
254	0x3e632f8e	0.2218611
255	0xbe4f8aaf	-0.20267747

0.bias f4 [32]
0	0xbd9770d5	-0.07394568
1	0xbe69cc82	-0.2283192
2	0xbe27f964	-0.16403729
3	0xbe6640f5	-0.22485717
4	0xbe369378	-0.17829692
5	0x3cd70d94	0.026251592
6	0xbd453a77	-0.04815146
7	0x3def0d7c	0.11672494
8	0xbdf11d79	-0.117731996
9	0x3c7d36f1	0.015454994
10	0xbe550000	-0.20800781
11	0xbd5ded57	-0.054181423
12	0x3d1342fc	0.035952553
13	0xbe248d2a	-0.16069475
14	0x3cf6f7e7	0.030147506
15	0x3e28520b	0.16437547
16	0xbe3a914f	-0.18219493
17	0xbeb005e4	-0.34379494
18	0xbe59d7fe	-0.212738
19	0x3d118082	0.035522945
20	0x3c93c8fa	0.018040169
21	0xbcc7d80d	-0.024395013
22	0x3df7ec1f	0.121055834
23	0x3d93b93d	0.07213066
24	0xbdce9d12	-0.100885525
25	0xbba5cf3d	-0.005060105
26	0x3e157d64	0.14598614
27	0xbe296141	-0.16541006
28	0xbb8812e4	-0.0041526426
29	0xbe8d9afb	-0.27657303
30	0x3d4e4b20	0.050364614
31	0x3d4d88d6	0.050179325

2.weight f4 [32, 32, 3, 3]
0	0xbe084825	-0.13308771
1	0xbe532f34	-0.20623475
2	0xbe30144e	-0.17195246
3	0xbdb28c10	-0.08718121
4	0x3d6ac5a8	0.057317406
5	0x3d77c613	0.060491633
6	0x3e029461	0.12751915
7	0x3da7834d	0.081793405
8	0xbd10fd68	-0.035397917
9	0x3d6a55aa	0.057210602
10	0xbde5b2fa	-0.11215778
11	0xbe391f0c	-0.1807825
12	0xbdc93952	-0.09825386
13	0xbdfc9ec1	-0.123349674
14	0xbd9c107b	-0.07620331
15	0x3cca1d7c	0.024672262
16	0xbdb17869	-0.086655445
17	0xbe359969	-0.17734303
18	0xbde214ef	-0.11039149
19	0xbd86c5f6	-0.06580727
20	0xbd4210e6	-0.047379397
21	0xbc053928	-0.008131303
22	0x3dde427c	0.10852525
23	0xbc3984b7	-0.011323146
24	0xbdebede9	-0.11519987
25	0xbdda1a26	-0.10649519
26	0x3d1476fb	0.03624628
27	0xbde645ce	-0.11243783
28	0xbe00378d	-0.12521191
29	0xbdd73b95	-0.10509411
30	0x3cac6765	0.021045396
31	0xbd8335e4	-0.06406763
32	0x3c7dee6c	0.015498739
33	0x3dc18ac5	0.09450296
34	0x3d76305e	0.06010472
35	0xbc4ab9f7	-0.012373439
36	0xbdb6663e	-0.0890622
37	0xbc6520ee	-0.013984902
38	0xbd49051b	-0.049077135
39	0xbd42f466	-0.047596358
40	0xbd942f93	-0.072356366
41	0x3b9b0bd5	0.004731635
42	0xbd848a88	-0.06471735
43	0xbcd48449	-0.025941985
44	0x3c3919d7	0.011297665
45	0xbdd34476	-0.10315792
46	0xbd1f5015	-0.03889473
47	0x3cbbfec7	0.022948636
48	0xbda04d14	-0.078272015
49	0xbb96e9a4	-0.004605489
50	0x3bac02fc	0.005249379
51	0x3c645c68	0.013938047
52	0x3a801bab	0.0009773871
53	0xbcefd680	-0.029277086
54	0xbcd69dd1	-0.0261983
55	0x3ccfa9e3	0.025349563
56	0x3cd0163f	0.025401233
57	0xbbe48453	-0.006973782
58	0x3db51589	0.08841998
59	0xbd8e8585	-0.069590606
60	0x3d8308e6	0.063981816
61	0xbd8a2716	-0.06745736
62	0xbd93fa55	-0.072254814
63	0x3c8b7412	0.01702312
64	0xbc98bbd3	-0.018644249
65	0xbd9ca3df	-0.076484434
66	0xbdd57732	-0.10423125
67	0x3c0d4187	0.00862158
68	0x3db45e58	0.08807057
69	0xbd20e115	-0.039277155
70	0x3d3045ec	0.043035433
71	0xbd9bec12	-0.07613386
72	0x3cde5e33	0.027144527
73	0xbe0e4e3a	-0.13897029
74	0xbe2c1949	-0.1680652
75	0x3d2bb039	0.041916106
76	0xbe43a881	-0.19107248
77	0xbe0a3691	-0.13497378
78	0xbdb746b2	-0.08949031
79	0x3d917c1d	0.07103751
80	0xbd2413c7	-0.040057924
81	0x3cddd8da	0.027080942
82	0xbd6c9f62	-0.057769187
83	0x3b844579	0.004036602
84	0xbdc51fa8	-0.096251786
85	0xbd62c59b	-0.055364233
86	0x3cd94918	0.026524112
87	0xbd3685d4	-0.044561222
88	0xbd075891	-0.033043448
89	0xba655c52	-0.00087494135
90	0x3d8efff1	0.06982411
91	0x3dc10334	0.09424439
92	0x3be0fb56	0.006865899
93	0xbcc93e18	-0.024565741
94	0xbddbb1fe	-0.10727309
95	0xbe09cc2f	-0.13456796
96	0xbe338d50	-0.17534375
97	0xbd9aae09	-0.07552726
98	0x3c90d398	0.01767902
99	0x3c2a5868	0.010397054
100	0x3d472e72	0.048628278
101	0x3aeb343d	0.0017944645
102	0xbd9d46a8	-0.07679492
103	0xbd382173	-0.044953775
104	0xbd2ca3bf	-0.042148348
105	0xbe454765	-0.19265516
106	0xbdc2e796	-0.09516828
107	0xbba0626f	-0.0048945467
108	0xbc5c2c43	-0.013438287
109	0xbc84eada	-0.016225267
110	0xbcd41af8	-0.025891766
111	0xbd6badf3	-0.057538938
112	0xbdc8f5dd	-0.0981252
113	0xbc00f0dd	-0.007869926
114	0xbd824d48	-0.063623965
115	0xbde3753e	-0.111063465
116	0xbdb75547	-0.08951812
117	0xbd6a1fe7	-0.05715933
118	0xbe078e95	-0.13237984
119	0xbd43fff9	-0.047851536
120	0xbd7b9467	-0.061420824
121	0xbd811950	-0.06303656
122	0x3e42097f	0.18948935
123	0xbd8af022	-0.06784083
124	0xbd928cae	-0.07155739
125	0xbc9a3e11	-0.018828424
126	0xbe146621	-0.14492084
127	0xbe143343	-0.1447268
128	0x3c8cf873	0.017208314
129	0xbd56061e	-0.052251928
130	0xbcef7fb0	-0.02923569
131	0x3d410c86	0.047131084
132	0x3d572cff	0.052533146
133	0xbd6e4272	-0.058168836
134	0xbc396b88	-0.011317141
135	0x3d03ba94	0.032160357
136	0xbac4450c	-0.0014974191
137	0x3a4fa4be	0.0007920972
138	0x3dc6dd6c	0.097102016
139	0x3ca98150	0.020691544
140	0xbe1a8316	-0.15089068
141	0xbd1226f7	-0.03568169
142	0xbdcc908e	-0.09988509
143	0xbcb1ff46	-0.02172817
144	0x3d1a4b64	0.037669554
145	0x3d1736f8	0.036917657
146	0xbca9b1e2	-0.020714704
147	0x3c571dba	0.013129646
148	0xbda7f9b1	-0.08201922
149	0xbde0479a	-0.10951157
150	0xbda029dd	-0.07820485
151	0xbdc9f3de	-0.09860967
152	0xbdaeff2f	-0.08544766
153	0xbe0dbe6e	-0.13842174
154	0xbd75b6fb	-0.059988957
155	0xbbf0f321	-0.007353202
156	0x3cbc03f0	0.022951096
157	0xbc3ce58f	-0.01152934
158	0x3d2e8633	0.04260845
159	0x3db82966	0.08992271
160	0xbd004612	-0.031316824
161	0xbcfe2e97	-0.031028075
162	0xbe043432	-0.12910536
163	0xbba7ef05	-0.005124929
164	0x3e00fcba	0.12596408
165	0xb9e343da	-0.00043347367
166	0x3d98c113	0.07458701
167	0xbdd7af25	-0.10531453
168	0xbcc81c78	-0.024427637
169	0xbdaf6b17	-0.08565348
170	0xbdc60285	-0.09668449
171	0x3d02d350	0.031939805
172	0x3d0ac664	0.033880606
173	0xbe098e1c	-0.13433117
174	0xbbf650be	-0.0075169494
175	0xbe0b6c31	-0.1361549
176	0xbcf13e2b	-0.02944859
177	0x3c2f3113	0.010692853
178	0xbd33ae50	-0.04386741
179	0xbd728c32	-0.059215732
180	0xbc8b1e2f	-0.016982166
181	0x3d9b8863	0.07594373
182	0x3b6f0ed5	0.0036477346
183	0xbd1f4a2c	-0.038889095
184	0x3cc74d3d	0.024328822
185	0x3b812cb7	0.003942098
186	0xbd5d26e5	-0.05399217
187	0xbaa9e262	-0.0012961144
188	0x3d94fd4b	0.07274874
189	0xbd79e114	-0.061005667
190	0x3d7485a7	0.059697773
191	0xbb4b1ad1	-0.0030991326
192	0x3dfbd479	0.12296385
193	0x3cc83318	0.024438426
194	0xbe11be1d	-0.14232679
195	0x3ccc4691	0.024935992
196	0xbdf49c65	-0.119438924
197	0xbdb72e40	-0.08944368
198	0xbd786e16	-0.06065186
199	0xbcf8fabe	-0.030393
200	0xbe03e738	-0.12881172
201	0xbcd93106	-0.026512634
202	0xbd476f83	-0.04869033
203	0xbc88309e	-0.016624745
204	0x3c962a53	0.018330729
205	0x3cf9c60e	0.030489948
206	0xbd111be8	-0.035427004
207	0xbd3100dd	-0.043213714
208	0xbda5c845	-0.08094839
209	0xbce6a95f	-0.028156934
210	0xbdf5956a	-0.11991389
211	0xbd18d78a	-0.03731493
212	0x3cba0c89	0.022711055
213	0x3d4f9e5f	0.050688144
214	0x3caa29ef	0.020771949
215	0xbd6c00ba	-0.05761788
216	0x3b1866ea	0.00232547
217	0xbc802fc0	-0.015647769
218	0xbd0eef75	-0.034896333
219	0xbdbc818e	-0.09204398
220	0xbdd3c0e4	-0.10339525
221	0x3c8cc95d	0.017185861
222	0xba605f76	-0.00085591467
223	0xbd117789	-0.03551439
224	0x3cdff761	0.02733964
225	0xbdb87709	-0.09007079
226	0xbdac839f	-0.08423542
227	0xbdcb4ab8	-0.09926361
228	0xbd58008c	-0.052734897
229	0xbdd9a590	-0.10627282
230	0xbdbdfd59	-0.09276838
231	0x3d18b1bf	0.037278887
232	0xbdc9953b	-0.098429166
233	0xbc66eed0	-0.014095023
234	0x3cc7f96a	0.024410922
235	0x3d6245df	0.055242416
236	0xbbda03a7	-0.0066532674
237	0xbc9db628	-0.019251898
238	0xbd3dc8ba	-0.046334006
239	0xbd0186a7	-0.031622555
240	0xbd967f38	-0.07348484
241	0xbe15fb38	-0.14646614
242	0xbcf9e973	-0.030506825
243	0xbd4ef2a7	-0.05052438
244	0xbe42653e	-0.18983933
245	0xbcbbbd42	-0.022917394
246	0xbdc9dfc7	-0.09857135
247	0x3cbb1794	0.022838391
248	0x3d5bf96d	0.053704668
249	0x3dc21e41	0.09478427
250	0xbd982365	-0.07428626
251	0xbe42433d	-0.18970962
252	0x3d922e3b	0.07137724
253	0x3cb8af2a	0.022544462
254	0xbc8eb484	-0.017420061
255	0xbe1bcbbb	-0.15214436

2.bias f4 [32]
0	0xbcd2e00c	-0.0257416
1	0x3d12416d	0.035706926
2	0x3d1580cb	0.03649978
3	0xbc1443f4	-0.009049404
4	0xbd3044a9	-0.04303423
5	0xbd2837a6	-0.041068695
6	0x3cb39432	0.021921251
7	0xbd094f88	-0.033523113
8	0xbd255743	-0.040366422
9	0x3cd42390	0.025895864
10	0xbc7d8512	-0.015473621
11	0x3c2ac0c0	0.010421932
12	0xbd0a568b	-0.03377394
13	0x3bfb1330	0.0076621994
14	0x3d0a6277	0.03378531
15	0x3caf28e4	0.021381803
16	0xbd03f9d7	-0.032220688
17	0xbd1bbd7e	-0.03802251
18	0xbd7701c9	-0.060304437
19	0xbd78750b	-0.060658496
20	0xbba9b143	-0.005178602
21	0x3d3c3e58	0.045957893
22	0x3c81970d	0.015819097
23	0x3d46906a	0.048477568
24	0xbd8203dc	-0.06348392
25	0xbd7ea56b	-0.062169474
26	0xbd1956dc	-0.03743635
27	0xbd6ef983	-0.05834342
28	0x3d0bb919	0.03411207
29	0xbd851412	-0.06497969
30	0xbd991a35	-0.07475702
31	0xbc8dcda4	-0.017309971

6.weight f4 [10, 6272]
0	0xbc54d392	-0.012989895
1	0xba16be92	-0.0005750443
2	0xbbb67307	-0.0055679115
3	0xbbf20343	-0.0073856427
4	0xbbda092f	-0.006653927
5	0xbba60688	-0.0050666966
6	0xbc88d601	-0.016703608
7	0xbbc8d6f4	-0.00612914
8	0xbd25fbd5	-0.04052337
9	0xbbbc29eb	-0.0057423017
10	0xbc5d5269	-0.013508418
11	0x3aff510c	0.001947911
12	0x3a5dd240	0.00084618106
13	0xbba32250	-0.0049784556
14	0x3c143489	0.0090457285
15	0xbbdbce15	-0.0067079165
16	0xbbf44fe9	-0.007455815
17	0xbc761eeb	-0.01502202
18	0x3a6e6e53	0.0009095419
19	0xbbd95a73	-0.006633097
20	0xbd17f184	-0.03709556
21	0xbc975eee	-0.018477883
22	0x3b8bb0de	0.0042630276
23	0x3da12f11	0.07870305
24	0x3c882dcb	0.016623398
25	0x3c889bd5	0.016675869
26	0x3c8c4fa4	0.01712782
27	0xbc0e9dd8	-0.008704625
28	0x3c302e1c	0.010753181
29	0xbbdc3398	-0.0067200176
30	0xbc9da637	-0.019244296
31	0x3c311c89	0.010810026
32	0xbcf7c4d7	-0.030245228
33	0xbd4d9383	-0.050189506
34	0xbc64d9d8	-0.013967954
35	0x3d13d4ff	0.0360918
36	0x3af940bd	0.0019016486
37	0x3c4fd827	0.012685812
38	0x3d1e33b3	0.038623523
39	0x3c3b43c2	0.011429729
40	0xbd93b4a0	-0.07212186
41	0xbca8e0b7	-0.020614965
42	0x3b3f3acc	0.0029179333
43	0x3af43ca9	0.0018633801
44	0x3c06280e	0.008188261
45	0xbcc33cf5	-0.023832778
46	0xbcba0578	-0.022707686
47	0x3bb9d784	0.0056714434
48	0xbc141828	-0.009038962
49	0xbd16c92e	-0.036812954
50	0xbb118f3e	-0.0022210623
51	0x3ce41623	0.027842587
52	0x3d51ec4b	0.051250737
53	0xbbb2481e	-0.005440726
54	0x3c7c4a8f	0.0153986355
55	0xbcb11b7a	-0.021619547
56	0x3b88e9f1	0.0041782786
57	0x3ad702d0	0.0016404036
58	0xbca1ee52	-0.01976696
59	0x3d26cd4d	0.040723134
60	0xbc415290	-0.01179947
61	0xbc488336	-0.012238314
62	0xbd4fbbc7	-0.050716188
63	0x3bd37d53	0.006454149
64	0xbba9a7ea	-0.0051774876
65	0xbcd632ad	-0.026147211
66	0xbd05f9e5	-0.03270902
67	0x3b88a288	0.004169766
68	0xbcdd03ff	-0.026979445
69	0xbcd8fbab	-0.026487192
70	0x3bb0a697	0.005390953
71	0xbbee7056	-0.007276575
72	0xbc8f0d6b	-0.017462453
73	0xbb3135c6	-0.0027040108
74	0x3c0804a0	0.008301884
75	0x3d288d20	0.041150212
76	0x3d368c8b	0.044567626
77	0x3b61dd8c	0.0034464328
78	0xbc88e1ec	-0.01670929
79	0xbd6f73ef	-0.058460172
80	0xbd08871d	-0.03333198
81	0x3d077e45	0.033079404
82	0x3808df77	3.2633045e-05
83	0xbab4a2be	-0.0013781411
84	0x3b87312d	0.0041257353
85	0xbcc669c9	-0.024220364
86	0xbb87052d	-0.00412049
87	0x3d8f3690	0.06992829
88	0x3d4aa0eb	0.04946987
89	0x3ce77a7c	0.028256647
90	0xbca221e5	-0.019791553
91	0xbdb83455	-0.089943565
92	0xbdcc06c2	-0.099622265
93	0xbd4b3e83	-0.049620163
94	0xbd3db569	-0.046315584
95	0xbc99f827	-0.018795086
96	0x3cf2a716	0.029620688
97	0x3c80f970	0.015743941
98	0x3c2cf73f	0.010556995
99	0x3be7be16	0.0070722206
100	0x3ce42d1b	0.02785354
101	0x3d7f2a6d	0.06229632
102	0x3d7fe591	0.06247479
103	0xbd56a83d	-0.05240654
104	0xbd2d34ae	-0.042286567
105	0xbd9f40a9	-0.07776005
106	0xbd425ee0	-0.04745376
107	0xbca0ee26	-0.019644808
108	0xbc001d41	-0.007819475
109	0x3cefdc75	0.029279927
110	0xbcb869b1	-0.022511335
111	0xbccc0ebb	-0.024909368
112	0x3c00d4fb	0.0078632785
113	0xbc7935c7	-0.015210575
114	0x3c7da418	0.0154810175
115	0x3d1a6a7a	0.0376992
116	0x3c0f52c5	0.008747761
117	0xbcdfcb80	-0.027318716
118	0xbd06b50e	-0.03288751
119	0xbc888971	-0.0166671
120	0x3c31064b	0.010804723
121	0x3c887c02	0.016660694
122	0x3ca69875	0.020336369
123	0xbba43544	-0.0050112326
124	0xbd3b4c89	-0.045727286
125	0xbc34bc18	-0.011031173
126	0x3b91cf72	0.0044497782
127	0x3a853a21	0.0010164418
128	0x3c085d43	0.008323017
129	0xbc11b357	-0.008892856
130	0xbd1cc960	-0.038277984
131	0xbd00d9fc	-0.031457886
132	0x3cebe828	0.028797224
133	0x3d367dfc	0.04455374
134	0x3d1932b4	0.03740187
135	0x3d143be9	0.036189947
136	0xbc3a2ea0	-0.011363655
137	0xbd36193d	-0.044457663
138	0xbd76d053	-0.060257267
139	0x3ba255d6	0.00495408
140	0x3ba7bda2	0.0051190415
141	0xbc73680d	-0.014856351
142	0x3b0b8e47	0.002129452
143	0xbcdb1b3c	-0.026746385
144	0xbb7dec8f	-0.0038745736
145	0x3d7410b5	0.059586246
146	0x3ca6cd20	0.020361483
147	0x3c3c1e3c	0.011481818
148	0xbcc14481	-0.023592236
149	0x3cbdee99	0.023185061
150	0xbcc3373e	-0.023830052
151	0xbc0c8261	-0.008576007
152	0xbb327880	-0.0027232468
153	0x3c4bc3bb	0.0124368025
154	0x3bf0cfc2	0.0073489854
155	0xbc977233	-0.018487072
156	0x3bd37000	0.0064525604
157	0xbba37aaa	-0.004988988
158	0xbd003661	-0.03130186
159	0xbc80f707	-0.015742792
160	0x3c4fecc4	0.012690727
161	0x3badbb7d	0.0053018914
162	0x3ca322ac	0.019913994
163	0x3d8d7f3c	0.06909034
164	0xbc36c189	-0.011154541
165	0x3bb982d6	0.005661349
166	0x3b71655d	0.00368341
167	0xbbc4b742	-0.0060032913
168	0xbb94f707	-0.0045460495
169	0xbca3efef	-0.02001187
170	0xbce33d51	-0.027739199
171	0xbd4b8e78	-0.049696416
172	0xbd8ac2ea	-0.06775458
173	0xbd17ed01	-0.03709126
174	0xbc79a59c	-0.015237238
175	0xbd2b2ce2	-0.04179085
176	0xbd6a63c5	-0.057224054
177	0xbc8d5cd7	-0.017256184
178	0xbc6c6e65	-0.014430617
179	0x3b9f9fad	0.0048713298
180	0xbc7ae2be	-0.015312849
181	0xbc66c1c7	-0.014084286
182	0xbbab1d65	-0.00522201
183	0x3b0dd617	0.00216425
184	0xbcbcf3c7	-0.02306546
185	0xbce22c31	-0.027608963
186	0xbca29887	-0.019848121
187	0xbc0e379b	-0.00868025
188	0xbd4c5d70	-0.049893796
189	0xbcad8622	-0.021182124
190	0xbbac0f8f	-0.005250878
191	0xbaf7afb9	-0.0018896974
192	0xbc0d281f	-0.008615523
193	0xbc2e5ec3	-0.01064271
194	0xbc71b5b0	-0.01475279
195	0xbbbee2a0	-0.0058253556
196	0xbc17d9d2	-0.009268241
197	0xbb2dc1d4	-0.0026513236
198	0xbba2467d	-0.0049522505
199	0xbbbd6988	-0.0057804026
200	0xbc4801bc	-0.012207445
201	0xbc280b1d	-0.010256556
202	0xbc3f413a	-0.011673266
203	0x3ac236c0	0.0014817342
204	0xbb253007	-0.0025205628
205	0xbc1c82e7	-0.009552694
206	0x3ba3644e	0.0049863225
207	0xbb477fc0	-0.0030441135
208	0x3aeab96c	0.0017908043
209	0xbc64d6f8	-0.013967268
210	0xbaa4b03c	-0.0012564729
211	0xbc26a4a7	-0.010171092
212	0xbc02fe81	-0.007995249
213	0xba95bead	-0.0011424624
214	0xbbedf9b6	-0.007262434
215	0x3b422ea7	0.0029629858
216	0xbaa67a02	-0.0012701156
217	0x3b65b5a7	0.00350509
218	0x3b1a886d	0.0023579851
219	0xbc591727	-0.013250149
220	0xbc6ddf9b	-0.014518644
221	0xbba0bc02	-0.004905225
222	0xbc4d1b75	-0.012518753
223	0xbc55a144	-0.013038937
224	0xbbf035b4	-0.0073306207
225	0x3b5a499e	0.003330804
226	0xbb4421ff	-0.002992749
227	0xbcc0d419	-0.023538636
228	0xbcc5e278	-0.02415584
229	0xbbac3d3d	-0.0052563236
230	0xbcc8c849	-0.024509566
231	0xbd37130f	-0.04469591
232	0xbca20da4	-0.019781895
233	0xbcb61c63	-0.022230333
234	0xbc8b4662	-0.017001335
235	0xbc64ec69	-0.01397238
236	0x3c353fa1	0.011062534
237	0xbc4be308	-0.012444265
238	0x3bb93212	0.005651721
239	0x3bed3fd1	0.0072402735
240	0xbc905d90	-0.01762274
241	0xbc06b462	-0.008221718
242	0xbb29ef66	-0.0025930046
243	0xbbda11ed	-0.006654969
244	0xbc26def7	-0.010184995
245	0x3c9cb4cf	0.019129185
246	0x3cb9098d	0.022587562
247	0x3c1874d3	0.009305197
248	0x3c986322	0.018601958
249	0x3c3e6d46	0.0116227325
250	0xbb88d7ab	-0.0041761003
251	0x3b5fa216	0.003412371
252	0xbc64c3bf	-0.013962685
253	0xbb71445d	-0.003681443
254	0xbd1e9a4c	-0.038721368
255	0xbd1af8f5	-0.03783508

6.bias f4 [10]
0	0xbcb30dd0	-0.021857172
1	0x3d87e8ea	0.06636222
2	0x3c233895	0.009962221
3	0x3a29ef32	0.0006482481
4	0xbc8a7e9c	-0.016906075
5	0x3c9bd44a	0.019022126
6	0xbc57fecb	-0.013183306
7	0x3d2d7597	0.04234847
8	0xbd5134eb	-0.051075857
9	0xbca6a300	-0.020341396
