examples/model.pth (torch, 178569 bytes, 10 tensors)

0.weight f4 [32, 1, 3, 3]
0.28732386 0.25841454 -0.25468087 -0.34825176 -0.13156228 0.14363493 0.07073916 0.25642398
-0.0068236873 -0.09997234 -0.45819402 -0.118065365 -0.21818827 -0.19512042 0.28229207 -0.38874173
0.3033908 0.42215008 -0.10791122 -0.19364092 -0.14900847 -0.023268292 0.03465095 0.15512404
0.07073265 0.10261557 -0.096719876 -0.14516123 0.18692033 0.18994519 -0.31983057 0.15788756
-0.40549886 0.25116724 -0.18420158 0.047634818 0.13431694 0.069436766 -0.29152697 -0.29626337
0.040156845 0.16743734 -0.2809881 0.17112122 0.23614594 0.19045095 -0.01466597 0.34000424
0.022702582 -0.33630785 0.10802534 -0.09226972 -0.4317658 -0.3021778 -0.17694528 0.40208665
0.16942334 -0.42492425 -0.081996396 -0.13696112 -0.35136712 -0.2749478 -0.39887294 0.06655042
-0.18471763 -0.17429833 -0.24819914 0.32154307 0.24039567 -0.33247948 0.17767993 -0.13620451
0.12286824 -0.52209073 -0.24371204 -0.11239923 -0.017997582 0.052015085 0.27337578 0.064835966
0.19403324 0.14553574 -0.3235427 -0.347791 -0.026667323 -0.6895038 -0.1395601 -0.23027828
-0.41473505 -0.47562864 -0.26190308 0.17090371 -0.13717136 -0.18134755 0.35029548 0.16560225
0.20956534 0.007603943 0.03771781 0.24840613 0.0017639892 -0.0703872 0.09989997 0.13289385
-0.33640432 0.08744217 -0.12662359 -0.14684258 0.26925093 -0.05837785 -0.16143474 -0.04370349
0.27039856 0.20520666 -0.32351887 -0.30658278 0.3239408 0.025501546 0.07786119 -0.07926999
0.12917368 -0.2659545 -0.059963245 0.18352844 -0.05967962 0.13338698 -0.31634265 0.120625556
0.2540922 0.19299024 0.19383961 -0.11923976 -0.3136987 0.3260582 -0.14962032 -0.19274047
0.3402222 0.2652761 -0.07783778 -0.024494644 0.20599157 -0.2090263 0.12189492 -0.1366583
0.36727557 0.32646638 0.39390865 0.14701577 -0.301727 0.16141154 -0.3584403 -0.23980384
-0.116233245 -0.10102045 0.19772528 0.1583774 -0.40427527 0.0669448 -0.38505635 -0.08529502
0.09002279 -0.13237512 -0.10807139 -0.4482472 -0.29028454 0.06443073 0.12747264 -0.019441701
-0.0024168876 0.2563174 0.44208246 -0.18638751 0.039445043 0.046567123 -0.10155662 -0.1265926
-0.016180396 -0.015558998 0.1749733 -0.24099693 0.10481227 -0.41609618 -0.34077185 0.38105583
-0.38310373 -0.10782653 0.41775557 0.007176876 0.1880024 -0.15074693 0.31308126 -0.055325925
0.35702974 0.043415762 -0.43507224 0.19045265 -0.334996 -0.34247294 0.33236465 -0.014428353
0.16270465 0.0617499 -0.22342819 -0.19270252 0.095728934 0.1865075 0.25877404 0.25211197
0.15513527 -0.38530418 0.03710441 -0.3287834 -0.054684304 0.06817581 0.10374167 0.1981931
-0.48249444 -0.13880366 0.114615686 -0.04954107 0.08332816 0.39502802 0.26657417 -0.2646717
-0.04494943 -0.17261936 0.036745187 0.21579945 -0.020937156 -0.5056854 -0.40184775 0.21116103
0.2356464 0.060445182 -0.11918457 0.05474227 -0.15097123 0.4115238 -0.09526187 -0.2028741
0.22282992 0.2979214 -0.11690102 0.42352378 -0.21457386 0.36354917 -0.21162958 -0.3380493
0.003283037 -0.07958559 0.022900367 0.051610727 -0.42415282 -0.23322555 -0.34715566 -0.42910704
00000000: 1d1c 933e e94e 843e 8865 82be 0e4e b2be
00000010: 43b8 06be 0915 133e b1df 903d 014a 833e
00000020: 3d99 dfbb 4cbe ccbd 6898 eabe 41cc f1bd
00000030: bf6c 5fbe a6cd 47be 9688 903e 2809 c7be
00000040: 0a56 9b3e 0e24 d83e 8f00 ddbd ce49 46be
00000050: ad95 18be 259d bebc 28ee 0d3d d6d8 1e3e
00000060: 48dc 903d 1d28 d23d 1215 c6bd 25a5 14be
00000070: 0b68 3f3e fe80 423e d5c0 a3be 47ad 213e
00000080: 8c9d cfbe fe98 803e 579f 3cbe ba1c 433d
00000090: 618a 093e dd34 8e3d 0643 95be d5af 97be
000000a0: 817b 243d b274 2b3e acdd 8fbe 673a 2f3e
000000b0: 3ed0 713e 9305 433e 8949 70bc 0915 ae3e
000000c0: c4fa b93c 8b30 acbe 643c dd3d e8f7 bcbd
000000d0: 6810 ddbe 0cb7 9abe 2531 35be 4dde cd3e
000000e0: 507d 2d3e ac8f d9be baed a7bd 893f 0cbe
000000f0: 64e6 b3be f5c5 8cbe 1339 ccbe 964b 883d
00000100: 9e26 3dbe 437b 32be ea27 7ebe 4ba1 a43e
00000110: 482a 763e c03a aabe baf1 353e 3279 0bbe
00000120: 58a2 fb3d bda7 05bf a68f 79be 9131 e6bd
00000130: aa6f 93bc c50d 553d e9f7 8b3e b8c8 843d
00000140: a6b0 463e 5207 153e 64a7 a5be a911 b2be
00000150: 6e75 dabc 5283 30bf d8e8 0ebe 12ce 6bbe
00000160: 2758 d4be 9985 f3be 2918 86be 6201 2f3e
00000170: a676 0cbe 2cb3 39be ee59 b33e a393 293e
00000180: 4c98 563e 7f2a f93b fe7d 1a3d 2d5e 7e3e
00000190: a835 e73a 2a27 90bd 5b98 cc3d 5315 083e
000001a0: 303d acbe e114 b33d 9da9 01be e75d 16be
000001b0: 42db 893e 9d1d 6fbd 264f 25be 6e02 33bd
000001c0: ae71 8a3e b221 523e 44a4 a5be 6bf8 9cbe
000001d0: 92db a53e 9ee8 d03c b075 9f3d 4e58 a2bd
000001e0: 1b46 043e 302b 88be 059c 75bd e1ee 3b3e
000001f0: 9e72 74bd 9996 083e aaf7 a1be 880a f73d
00000200: 5f18 823e 3c9f 453e e47d 463e fa33 f4bd
00000210: 1e9d a0be 1af1 a63e 1236 19be c25d 45be
00000220: 9b31 ae3e 45d2 873e 6a69 9fbd fea8 c8bc
00000230: 74ef 523e fe0a 56be 0ba4 f93d 27f0 0bbe
00000240: 8b0b bc3e 9a26 a73e 65ae c93e 4d8b 163e
00000250: f67b 9abe 1149 253e 7d85 b7be 238f 75be
00000260: b20b eebd cfe3 cebd 7f78 4a3e af2d 223e
00000270: 2bfd cebe 5b1a 893d 1b26 c5be 28af aebd
00000280: de5d b83d 588d 07be 8854 ddbd a880 e5be
00000290: 2da0 94be 42f4 833d 3088 023e 3444 9fbc
000002a0: a564 1ebb 093c 833e a258 e23e 5edc 3ebe
000002b0: 2091 213d 2bbd 3e3d ebfc cfbd 7ea1 01be
000002c0: c08c 84bc 2beb 7ebc 332c 333e e6c7 76be
000002d0: d1a7 d63d 8f0a d5be a679 aebe c019 c33e
000002e0: 2c26 c4be 28d4 dcbd 0fe4 d53e 002c eb3b
000002f0: b383 403e 675d 1abe 304c a03e 709d 62bd
00000300: 9acc b63e bad4 313d cac1 debe 0506 433e
00000310: 9984 abbe 9d58 afbe b32b aa3e e664 6cbc
00000320: 0c9c 263e 77ed 7c3d 5cca 64be cf53 45be
00000330: 880d c43d d2fb 3e3e 087e 843e d214 813e
00000340: c8db 1e3e 9746 c5be cbfa 173d 4c56 a8be
00000350: a6fc 5fbd c29f 8b3d 8376 d43d 22f3 4a3e
00000360: 8309 f7be 8c22 0ebe a1bb ea3d 94eb 4abd
00000370: f4a7 aa3d 1d41 ca3e 697c 883e 0d83 87be
00000380: e51c 38bd 21c3 30be 1f82 163d 88fa 5c3e
00000390: 6684 abbc 9974 01bf fdbe cdbe 993a 583e
000003a0: 4a4d 713e 5e95 773d 0a17 f4bd 6e39 603d
000003b0: 3498 1abe 3fb3 d23e a818 c3bd 3abe 4fbe
000003c0: 872d 643e 2789 983e cd69 efbd 1cd8 d83e
000003d0: 40b9 5bbe 1e23 ba3e 6db5 58be cc14 adbe
000003e0: 3928 573b c5fd a2bd 8d99 bb3c c565 533d
000003f0: 8f2a d9be aed2 6ebe 63be b1be ebb3 dbbe

0.bias f4 [32]
-0.24097995 -0.2173274 -0.20814884 -0.11627889 -0.07133448 0.047604337 -0.004031713 0.03313806
0.065370545 0.07404102 -0.26448435 -0.17131756 -0.11040468 -0.14713086 -0.027510975 -0.2037583
-0.16268715 -0.06235794 -0.22822288 -0.2651996 0.09551448 -0.028379338 -0.31181958 -0.08178888
-0.025496522 0.04047088 -0.12161352 0.026523681 0.1018521 -0.018175313 -0.43195507 -0.22473708
00000000: 73c3 76be 138b 5ebe f824 55be a023 eebd
00000010: d017 92bd c4fc 423d 761c 84bb c6bb 073d
00000020: fee0 853d d1a2 973d 7e6a 87be df6d 2fbe
00000030: d91b e2bd 79a9 16be b25e e1bc 04a6 50be
00000040: 7697 26be 0a6b 7fbd 42b3 69be 3ec8 87be
00000050: 189d c33d c97b e8bc d1a6 9fbe ee80 a7bd
00000060: 15de d0bc cbc4 253d 8210 f9bd 3148 d93c
00000070: d597 d03d 65e4 94bc 3729 ddbe 7a21 66be

2.weight f4 [32, 32, 3, 3]
0.06397993 0.01749232 0.022604123 -0.03370628 -0.0043740026 -0.088907294 -0.042950075 -0.06271374
-0.051181216 -0.07748254 -0.04453241 -0.06551757 -0.084206365 -0.04222123 -0.0875719 -0.12555619
-0.11911878 0.07528463 -0.08481488 0.017163556 -0.0474129 -0.039774403 -0.045962602 -0.12547328
-0.06185138 -0.018858269 -0.012359645 -0.1343495 -0.005306108 -0.09033246 -0.030883804 -0.005350061
0.036241714 0.014272148 -0.046426363 -0.04043827 0.03401554 -0.06498311 -0.061825212 -0.1314734
-0.099279866 -0.14781438 -0.13957924 -0.1349786 0.05848707 -0.07717236 -0.07001716 -0.06129112
-0.077539355 -0.096195206 -0.010900677 -0.08417093 0.03414277 0.016296638 -0.09721024 -0.09373386
-0.15174404 0.025429256 0.10945231 -0.007353025 -0.021565255 -0.09916687 -0.06867564 0.10764545
0.04330419 0.025888605 0.012826447 0.010063862 -0.091798656 -0.1363357 -0.13979511 -0.035598345
-0.061120156 0.040764213 -0.069259726 0.036910567 -0.060076896 -0.12492742 -0.024428073 -0.08128064
-0.0024931182 -0.056452733 -0.008449275 -0.04707879 -0.122657605 -0.08036001 -0.013060173 -0.06576146
-0.07380291 -0.098699085 -0.035609517 -0.08198747 0.017498707 0.07599986 -0.050596144 -0.11430266
0.030746013 -0.07021381 -0.10876717 -0.0017399682 -0.080898084 -0.03363566 -0.06487395 -0.013259918
-0.06717356 -0.034521554 -0.07356403 -0.04758214 -0.013130474 -0.030513523 -0.059777543 -0.092856914
-0.07124599 -0.02948119 -0.12885076 -0.09170157 0.063220605 -0.03452887 -0.015650852 0.02165711
0.009485802 0.03014506 -0.062170893 -0.02706812 -0.07270542 -0.11358604 -0.040648088 -0.014694005
-0.10064704 -0.014056994 -0.032281544 -0.030221589 0.03933444 0.013748583 -0.038053915 0.0030700378
-0.045153532 -0.07708983 -0.057525236 -0.057460025 -0.07902881 -0.024802824 0.04873372 -0.021750472
-0.009998114 0.005914978 -0.084872626 -0.020200728 -0.029357899 0.035636976 -0.08878091 0.0341206
0.06496362 0.039668396 -0.054740127 -0.09099726 0.04279672 -0.053733215 -0.037428193 -0.04132476
-0.03151296 -0.080449276 0.033679582 -0.011095902 0.010869396 -0.065910466 -0.13689592 -0.06912788
-0.06960662 -0.083123975 0.0014786471 -0.03838537 0.004132 0.04621527 0.03568124 0.0049671326
0.034904417 -0.033332452 -0.01795984 0.04668695 -0.055040065 0.042186476 -0.030470943 0.033389907
-0.0058382163 -0.0319548 -0.061412558 -0.089788325 -0.09283518 -0.15412587 -0.088803634 -0.1108112
-0.034729447 -0.031546306 -0.15879567 -0.06605194 0.03464992 -0.11884703 -0.0230436 0.094042346
0.05626879 -0.13439892 -0.015951956 -0.012154579 -0.14602265 0.021110237 0.011681437 0.025140446
-0.02709706 0.07266394 -0.054268245 -0.065307565 -0.105468936 -0.030714162 -0.06459535 -0.09520646
-0.05025614 -0.07110318 0.045954183 0.07483006 -0.06898284 -0.15767881 0.012764276 -0.075958714
-0.15277036 -0.050280843 -0.07198509 -0.049527347 -0.12637313 0.04445782 -0.08020513 -0.07440759
0.0055586845 -0.10756523 -0.1202938 0.0061656917 0.0027204182 0.01957149 -0.091553405 -0.12386296
-0.035818644 -0.0043846183 -0.043900132 -0.09133005 -0.13658959 -0.10491975 -0.023037486 -0.085182644
-0.06056176 -0.10688346 -0.030812126 -0.050705314 -0.0671412 -0.1293032 -0.09271979 -0.1399438
00000000: e907 833d 0e4c 8f3c 482c b93c 990f 0abd
00000010: cb53 8fbb 0715 b6bd 6bec 2fbd 1070 80bd
00000020: 65a3 51bd 2aaf 9ebd 9e67 36bd 132e 86bd
00000030: 6374 acbd 2bf0 2cbd e558 b3bd cd91 00be
00000040: 8cf4 f3bd d42e 9a3d 6cb3 adbd 969a 8c3c
00000050: 0734 42bd 7cea 22bd 4843 3cbd 117c 00be
00000060: df57 7dbd a87c 9abc 1c80 4abc ea92 09be
00000070: dcde adbb 3a00 b9bd 0800 fdbc 914f afbb
00000080: 3172 143d bad5 693c 9229 3ebd 99a2 25bd
00000090: e153 0b3d dd15 85bd 6f3c 7dbd f7a0 06be
000000a0: 3e53 cbbd a75c 17be dced 0ebe d537 0abe
000000b0: 2390 6f3d 8b0c 9ebd 2865 8fbd 660c 7bbd
000000c0: f4cc 9ebd fe01 c5bd c198 32bc cf61 acbd
000000d0: 4ad9 0b3d 8780 853c 2a16 c7bd 8af7 bfbd
000000e0: ca62 1bbe 0451 d03c 8828 e03d a5f1 f0bb
000000f0: 9ea9 b0bc 0018 cbbd d0a5 8cbd 3875 dc3d
00000100: bc5f 313d 5714 d43c 0526 523c e6e2 243c
00000110: ef00 bcbd 969b 0bbe 7326 0fbe 92cf 11bd
00000120: 2159 7abd 60f8 263d 0bd8 8dbd 892f 173d
00000130: 3113 76bd f2d9 ffbd 621d c8bc 7776 a6bd
00000140: 9563 23bb fb3a 67bd d46e 0abc b0d5 40bd
00000150: e933 fbbd ca93 a4bd 56fa 55bc f2ad 86bd
00000160: fb25 97bd bf22 cabd 49db 11bd 0ce9 a7bd
00000170: 7359 8f3c d1a5 9b3d e73d 4fbd 8317 eabd
00000180: 10df fb3c 42cc 8fbd 52c1 debd a50f e4ba
00000190: e5ad a5bd 8cc5 09bd a2dc 84bd 2140 59bc
000001a0: 4b92 89bd 7966 0dbd bda8 96bd 7de5 42bd
000001b0: 3321 57bc 7ff7 f9bc 4cd9 74bd c42b bebd
000001c0: 6be9 91bd 8982 f1bc 74f1 03be 08ce bbbd
000001d0: ce79 813d 256e 0dbd 3736 80bc 406a b13c
000001e0: 566a 1b3c c6f2 f63c e8a6 7ebd f6bd ddbc
000001f0: 94e6 94bd cc9f e8bd 9c7e 26bd 20bf 70bc
00000200: 0920 cebd 4e4f 66bc a739 04bd 4493 f7bc
00000210: 261d 213d bd41 613c 6cde 1bbd b032 493b
00000220: e9f2 38bd 46e1 9dbd 959f 6bbd 345b 6bbd
00000230: dbd9 a1bd 4b2f cbbc 029d 473d 0c2e b2bc
00000240: 21cf 23bc 6fd2 c13b b3d1 adbd ff7b a5bc
00000250: fa7f f0bc 14f8 113d c4d2 b5bd 0bc2 0b3d
00000260: a50b 853d 547b 223d 2f37 60bd c55c babd
00000270: 9d4b 2f3d 5c17 5cbd 4e4e 19bd 2744 29bd
00000280: bc13 01bd 97c2 a4bd 9af3 093d 96cb 35bc
00000290: 8d15 323c 11fc 86bd 722e 0cbe eb92 8dbd
000002a0: ea8d 8ebd e73c aabd 2acf c13a fa39 1dbd
000002b0: ba65 873b 394c 3d3d 7e26 123d 54c3 a23b
000002c0: eff7 0e3d 9c87 08bd 8420 93bc d13a 3f3d
000002d0: b171 61bd bacb 2c3d 339e f9bc dbc3 083d
000002e0: 824e bfbb 09e3 02bd bc8b 7bbd f1e2 b7bd
000002f0: 5f20 bebd 2cd3 1dbe aede b5bd fcf0 e2bd
00000300: 7740 0ebd b336 01bd 559b 22be 3d46 87bd
00000310: 13ed 0d3d 1266 f3bd efc5 bcbc 4699 c03d
00000320: 1a7a 663d df9f 09be adad 82bc 0024 47bc
00000330: f686 15be 60ef ac3c 7f63 3f3c 56f3 cd3c
00000340: a7fa ddbc d5d0 943d 6148 5ebd f9bf 85bd
00000350: 1900 d8bd 449c fbbc 914a 84bd 9bfb c2bd
00000360: 62d9 4dbd 8b9e 91bd 743a 3c3d 8140 993d
00000370: e046 8dbd 8e76 21be 4121 513c 3e90 9bbd
00000380: d56f 1cbe 49f3 4dbd eb6c 93bd 30dd 4abd
00000390: f567 01be 6719 363d 9642 a4bd 0263 98bd
000003a0: a025 b63b 294b dcbd 995c f6bd 9209 ca3b
000003b0: 0b49 323b 6454 a03c 5a80 bbbd ddab fdbd
000003c0: 92b6 12bd d8ac 8fbb a0d0 33bd 400b bbbd
000003d0: 24de 0bbe 2ae0 d6bd 1cb9 bcbc 3d74 aebd
000003e0: 9c0f 78bd b7e5 dabd b669 fcbc 60b0 4fbd
000003f0: 5381 89bd 0f68 04be e0e3 bdbd 6d4d 0fbe

2.bias f4 [32]
-0.09281605 0.067338586 0.1031039 0.068428576 -0.0233462 -0.091396876 -0.10579491 0.036069687
0.05877221 -0.06205066 -0.07656136 0.06367603 0.0521696 -0.07221477 0.14363502 -0.039650854
0.09737767 -0.009997104 -0.07886428 0.0017241065 0.03135182 -0.049638703 0.06151498 0.037613194
-0.06829757 -0.038759507 0.13986772 0.092672855 0.096367806 -0.010399973 -0.0586828 0.12572159
00000000: 5716 bebd d0e8 893d 2328 d33d 4824 8c3d
00000010: 8840 bfbc 492e bbbd 00ab d8bd cfbd 133d
00000020: 21bb 703d d528 7ebd 34cc 9cbd 9468 823d
00000030: caaf 553d 56e5 93bd 0f15 133e ef68 22bd
00000040: f26d c73d e5ca 23bc 9883 a1bd 6afb e13a
00000050: c46a 003d f451 4bbd 22f7 7b3d 4b10 1a3d
00000060: 99df 8bbd 4ac2 1ebd 7c39 0f3e 44cb bd3d
00000070: 7c5c c53d a664 2abc 605d 70bd 29bd 003e

5.weight f4 [32, 32, 3, 3]
-0.090184905 0.012965678 0.034480095 0.004119195 0.041644234 0.044905834 -0.053572107 0.077274896
0.014755969 -0.022429828 -0.07878043 0.037253253 -0.099474244 -0.06884715 -0.07034616 -0.088831194
-0.032157417 -0.039262645 -0.10846614 -0.012037846 -0.0033569403 -0.16051501 -0.0007678797 0.00326254
-0.13031074 -0.116595194 -0.06095741 0.07417935 -0.011973799 -0.09827756 -0.006618572 -0.03946384
0.06626499 0.040339667 -0.0452713 -0.08878363 -0.06827887 -0.11105764 0.06826682 -0.019493358
0.028335242 -0.030693334 -0.021172456 -0.10242768 -0.018226504 -0.010422635 -0.0075783124 0.03106045
-0.036940575 0.045912422 -0.044144966 -0.038416557 -0.025556874 0.023630248 -0.0093152225 0.048289347
0.08682573 0.0948308 0.089985296 -0.08016547 0.016794387 0.08173009 0.08485704 0.10261253
-0.095997326 -0.12083531 0.015722217 0.020429876 -0.06069047 -0.059502624 -0.0066029523 -0.060164582
-0.21152669 -0.075246 0.03275357 -0.20651075 -0.094357684 0.049483486 -0.12869939 -0.044824764
-0.074691765 -0.007897622 -0.034643643 0.006381598 -0.093208864 -0.055088095 -0.008849825 0.0041011064
0.015490541 0.0045509036 0.24410385 -0.07619802 -0.08852732 -0.08143151 -0.028811812 -0.12197918
-0.006747032 -0.08316967 -0.024929775 -0.035833143 -0.040481612 -0.06566266 -0.13022688 -0.058352992
-0.005256336 0.00554123 0.027403222 -0.08805966 0.09163192 -0.097412795 -0.05447291 0.0032791167
0.050446697 0.05779702 -0.16555011 -0.10347267 -0.004352806 -0.07945159 0.07355663 0.030238833
-0.0961787 -0.0008450147 -0.12530407 -0.02350726 -0.021627167 -0.008723299 -0.033632576 -0.089185216
-0.12376567 -0.14433385 -0.09618761 0.0007540414 -0.15957545 -0.088568926 -0.038774826 -0.051108908
0.027554663 0.0023455624 -0.0021773668 0.0028408307 -0.002378483 -0.010162205 -0.047944754 -0.061433066
-0.052759346 -0.016229192 -0.04268336 -0.03233793 -0.02482629 -0.054225244 -0.08318618 -0.043599
-0.10749942 -0.13014449 -0.082973 -0.11014872 -0.07164197 -0.21011686 -0.07691535 -0.061506968
-0.0088896435 -0.058977347 -0.057313696 0.049957193 0.04687894 -0.04626466 -0.04702591 -0.053600732
0.02287622 0.020283002 0.0039141076 -0.016112503 -0.043946248 -0.037080545 -0.17256683 -0.025447788
-0.091525555 -0.11094633 -0.07335075 -0.08293544 -0.008430035 -0.026339462 -0.007040893 -0.04892588
-0.06252348 0.025063507 -0.03296065 -0.069380745 -0.02370736 0.0059372275 -0.020310227 0.03754877
0.0032246772 0.033948384 0.027987165 0.04137831 -0.038627584 0.0110661015 0.09592456 -0.053350627
-0.01084872 -0.062829696 -0.02338572 -0.078389965 -0.09275193 -0.036974676 -0.018048022 -0.17777884
-0.11428154 -0.10603666 -0.06426694 -0.10655025 -0.06447869 -0.08925317 -0.08490841 -0.06439185
-0.09491016 -0.043698 -0.12833245 0.030536182 -0.07498839 -0.064007476 -0.050713666 0.0848033
-0.02041996 -0.01609835 0.023364026 -0.0574582 -0.016563164 -0.02722519 -0.08219298 -0.023666386
-0.051400933 -0.08549106 -0.032169834 -0.04957115 -0.035949077 -0.14654067 -0.00872014 -0.009134901
-0.14978874 -0.21351595 -0.2242504 -0.10235995 0.013296892 -0.019809997 -0.090025745 -0.081698135
-0.121466674 -0.04507988 -0.030753762 -0.14445572 -0.08314814 0.0041055623 -0.055861425 0.008493159
00000000: ddb2 b8bd ff6d 543c 003b 0d3d 50fa 863b
00000010: 2593 2a3d 2eef 373d 6d6e 5bbd 4d42 9e3d
00000020: 05c3 713c c2be b7bc a257 a1bd de96 183d
00000030: 27b9 cbbd bcff 8cbd a611 90bd 21ed b5bd
00000040: 7fb7 03bd ded1 20bd 7f23 debd 633a 45bc
00000050: 1d00 5cbb 0c5e 24be 894b 49ba 57d0 553b
00000060: 2e70 05be 76c9 eebd 7aae 79bd 58eb 973d
00000070: c12d 44bc bf45 c9bd 9be0 d8bb d6a4 21bd
00000080: f0b5 873d 353b 253d 666e 39bd 31d4 b5bd
00000090: cbd5 8bbd 3072 e3bd 79cf 8b3d 89b0 9fbc
000000a0: 4f1f e83c 9670 fbbc dc71 adbc 9ac5 d1bd
000000b0: c04f 95bc b3c3 2abc 7e53 f8bb 7c72 fe3c
000000c0: 004f 17bd aa0e 3c3d 5ad1 34bd ae5a 1dbd
000000d0: a65c d1bc 3994 c13c e09e 18bc 0dcb 453d
000000e0: b0d1 b13d a736 c23d 364a b83d cb2d a4bd
000000f0: 6294 893c 1b62 a73d 87c9 ad3d 8526 d23d
00000100: 3f9a c4bd 8178 f7bd e1cb 803c 8e5c a73c
00000110: 9296 78bd 06b9 73bd 945d d8bb 236f 76bd
00000120: 749a 58be 931a 9abd 9b28 063d 8e77 53be
00000130: 9a3e c1bd 32af 4a3d c6c9 03be 2c9a 37bd
00000140: fff7 98bd 0765 01bc 7ee6 0dbd b91c d13b
00000150: 4ae4 bebd 0ea4 61bd dbfe 10bc 9362 863b
00000160: 0acc 7d3c bf1f 953b 5cf6 793e b50d 9cbd
00000170: d04d b5bd 90c5 a6bd c006 ecbc 38d0 f9bd
00000180: 3516 ddbb dc54 aabd 8739 ccbc c6c5 12bd
00000190: 0cd0 25bd 257a 86bd 325a 05be 8c03 6fbd
000001a0: 583d acbb 3593 b53b b97c e03c 9f58 b4bd
000001b0: 84a9 bb3d 5c80 c7bd fc1e 5fbd 73e6 563b
000001c0: 32a1 4e3d 91bc 6c3d f885 29be 7be9 d3bd
000001d0: fca1 8ebb 84b7 a2bd dca4 963d 6eb7 f73c
000001e0: 57f9 c4bd fa83 5dba b64f 00be 4c92 c0bc
000001f0: 752b b1bc 2bec 0ebc 50c2 09bd bda6 b6bd
00000200: db78 fdbd 41cc 13be 02fe c4bd ddaa 453a
00000210: bf67 23be a063 b5bd 5ad2 1ebd 9357 51bd
00000220: 51ba e13c 02b8 193b 27b2 0ebb 3b2d 3a3b
00000230: 53e0 1bbb 617f 26bc b861 44bd 3da1 7bbd
00000240: 2f1a 58bd 15f3 84bc bfd4 2ebd c774 04bd
00000250: 8160 cbbc 4a1b 5ebd 845d aabd dd94 32bd
00000260: a828 dcbd 9944 05be c0ed a9bd a795 e1bd
00000270: 06b9 92bd e028 57be cc85 9dbd bbee 7bbd
00000280: dea5 11bc 3b92 71bd c4c1 6abd ea9f 4c3d
00000290: 2204 403d 0380 3dbd 3e9e 40bd 718c 5bbd
000002a0: e966 bb3c 8a28 a63c ea41 803b 5efe 83bc
000002b0: fb00 34bd c5e1 17bd 5cb5 30be e177 d0bc
000002c0: c071 bbbd d437 e3bd eb38 96bd 0eda a9bd
000002d0: 211e 0abc dbc5 d7bc 4bb7 e6bb 8166 48bd
000002e0: 4f0c 80bd fc51 cd3c bf01 07bd 7e17 8ebd
000002f0: f035 c2bc 138d c23b a261 a6bc bdcc 193d
00000300: 1b55 533b 760d 0b3d 5745 e53c 4e7c 293d
00000310: f537 1ebd 984e 353c 1974 c43d 3086 5abd
00000320: d4be 31bc dbac 80bd 6993 bfbc eb8a a0bd
00000330: b9f4 bdbd c272 17bd 72d9 93bc a80b 36be
00000340: 710c eabd c029 d9bd 639e 83bd 0437 dabd
00000350: 670d 84bd 5eca b6bd 76e4 adbd e0df 83bd
00000360: 4260 c2bd adfc 32bd 9569 03be 0427 fa3c
00000370: 8393 99bd 5a16 83bd 22b9 4fbd 5aad ad3d
00000380: c347 a7bc b0e0 83bc ea65 bf3c 4a59 6bbd
00000390: 79af 87bc 5d07 dfbc cb54 a8bd 02e0 c1bc
000003a0: c989 52bd f015 afbd 84c4 03bd 1e0b 4bbd
000003b0: 573f 13bd c20e 16be ebde 0ebc 8daa 15bc
000003c0: 3862 19be eda3 5abe e6a1 65be 18a2 d1bd
000003d0: 35db 593c 9348 a2bc 6b5f b8bd 5a51 a7bd
000003e0: 85c3 f8bd aea5 38bd 50ef fbbc 33ec 13be
000003f0: 9249 aabd f487 863b f3ce 64bd e426 0b3c

5.bias f4 [32]
-0.14107043 -0.016380548 -0.035185996 -0.039107017 -0.08768844 0.017886436 0.08628346 -0.08404437
0.115971655 -0.07249932 0.021200135 0.04507841 0.08592949 -0.020959968 -0.0046706423 0.0048541683
0.04626211 -0.1018218 -0.044578757 -0.05292655 0.10314134 -0.106439255 -0.034484573 0.052634314
-0.09527747 0.12680256 0.13501832 -0.08126529 0.053109203 0.13598071 0.0012952113 0.11646646
00000000: c474 10be 8030 86bc 311f 10bd ae2e 20bd
00000010: ff95 b3bd 9386 923c 62b5 b03d 741f acbd
00000020: 8c82 ed3d 867a 94bd e8ab ad3c 24a4 383d
00000030: cdfb af3d 3db4 abbc 300c 99bb b70f 9f3b
00000040: 577d 3d3d f387 d0bd 3798 36bd 83c9 58bd
00000050: c43b d33d d3fc d9bd b23f 0dbd 1497 573d
00000060: d620 c3bd 88d8 013e 3e42 0a3e 6b6e a6bd
00000070: 0989 593d 873e 0b3e 14c4 a93a f885 ee3d

7.weight f4 [32, 32, 3, 3]
-0.042086374 0.006278196 0.0016912295 0.040912848 -0.030675214 0.05581864 -0.046562564 0.008819045
0.047377918 -0.09240049 -0.13100985 0.10259769 0.026656907 -0.0823555 -0.04505249 0.013177733
-0.10348216 -0.13692337 0.0036330589 -0.05251725 -0.1286145 -0.03199455 -0.054407142 -0.07688495
-0.13955146 -0.0050181476 -0.06789579 -0.10492715 -0.01065546 0.037602134 -0.17431408 -0.083993815
0.014727743 -0.007946308 -0.039559573 -0.09464316 -0.054251764 0.061553545 -0.05272009 -0.017100746
-0.009330449 0.037389882 0.037580423 0.015349904 -0.052587956 -0.032664675 0.071941465 -0.12231894
0.039961882 -0.017241895 -0.07981208 -0.18206868 -0.025750414 0.005817143 -0.17541374 -0.101603806
-0.0031636816 -0.1607487 -0.2653727 -0.08828446 -0.11220705 -0.10007848 -0.10424049 0.0069845817
-0.01672798 -0.22825883 -0.00677117 0.053573266 -0.11719643 -0.12630738 0.040789116 0.10967916
-0.028135877 -0.07157386 0.03944355 -0.09419873 -0.07605651 -0.028877897 -0.2140928 -0.246934
-0.031167626 -0.036601614 -0.0598855 0.031250402 0.017269801 -0.007175013 -0.0349244 -0.010295177
0.010216058 0.03619874 -0.07414638 0.059450883 0.046510357 -0.22431521 -0.06561223 0.061961737
-0.109111935 -0.03977314 -0.046160396 -0.074087635 0.068138525 0.04889136 -0.07198854 -0.027334196
-0.12333163 -0.04203854 -0.17878875 -0.09010926 -0.009722035 0.07844363 -0.034822393 -0.08404759
0.14304541 -0.03376523 -0.22825646 -0.032367155 0.18384887 -0.05708049 -0.027092602 -0.005434921
-0.2394975 -0.1593422 -0.07562287 -0.2059124 -0.054133605 -0.021644745 -0.2479691 -0.15411863
-0.11974183 -0.11706484 -0.18802118 -0.11035962 -0.08369729 -0.12533075 -0.10892674 -0.09762159
-0.17888923 -0.037115026 -0.098758146 -0.06605051 -0.17649527 -0.10361065 -0.20731755 -0.048118457
0.034984577 -0.03999816 -0.023238238 -0.043300558 -0.070795774 -0.018848067 -0.18763316 -0.036841013
-0.12457844 0.058552504 -0.039235763 -0.041582625 0.024941225 0.016845318 0.0008681826 -0.04943867
-0.011745936 0.0034035344 -0.17905119 -0.06957199 -0.06976469 -0.020266298 -0.041366138 -0.029756468
-0.098746166 -0.11239676 0.029273193 -0.10361749 -0.2962512 -0.056053966 -0.17075779 -0.10512434
-0.22432819 -0.13976358 -0.16738266 -0.21472235 -0.11268404 -0.021596314 -0.12406767 -0.09713591
-0.07174939 0.0054285233 -0.212343 0.03245027 0.043957032 -0.05853956 -0.018058734 0.055128526
0.017451731 0.043459654 -0.003086498 0.017507471 0.016866818 -0.0380436 -0.013663836 0.054527365
0.06728117 0.020768642 -0.013612246 0.043334056 -0.008603395 0.04914689 0.018288372 -0.22275585
0.091108225 0.016691154 -0.07881084 0.024150314 -0.029957553 -0.037734635 -0.13990776 0.067437574
0.034317218 -0.015516987 0.0016469024 -0.037183132 0.019124145 -0.031157129 -0.032495786 0.03888727
0.021235922 -0.12236945 -0.16947855 -0.1541506 -0.20705672 -0.28240085 -0.19370143 -0.29368463
-0.17058955 -0.21655005 -0.16751584 -0.018545555 -0.047346104 -0.041101836 0.008834367 -0.028865624
-0.12564427 -0.16033058 -0.093766734 -0.012510253 -0.095134005 0.017888147 -0.11946511 -0.14650199
0.003693189 -0.19946231 -0.06342829 0.0438493 0.035991393 -0.10529985 -0.20087215 0.04879124
00000000: c362 2cbd 53b9 cd3b 3fac dd3a 3b94 273d
00000010: 964a fbbc 16a2 643d 63b8 3ebd c17d 103c
00000020: 590f 423d 783c bdbd 7227 06be bd1e d23d
00000030: 965f da3c 00aa a8bd f688 38bd 6be7 573c
00000040: 74ee d3bd a435 0cbe 9d18 6e3b 541c 57bd
00000050: 85b3 03be b80c 03bd 06da 5ebd db75 9dbd
00000060: 94e6 0ebe 466f a4bb f30c 8bbd 0ce4 d6bd
00000070: 3d94 2ebc b204 1a3d 647f 32be f304 acbd
00000080: a24c 713c 3b31 02bc 3809 22bd 46d4 c1bd
00000090: 1937 5ebd 921f 7c3d 05f1 57bd dd16 8cbc
000000a0: bdde 18bc 2226 193d eeed 193d 2a7e 7b3c
000000b0: 7866 57bd 65cb 05bd 0c56 933d 5a82 fabd
000000c0: 12af 233d e03e 8dbc 8474 a3bd 3670 3abe
000000d0: 88f2 d2bc bb9d be3b a99f 33be a815 d0bd
000000e0: c555 4fbb 4f9b 24be eede 87be 7cce b4bd
000000f0: cfcc e5bd f2f5 ccbd 0a7c d5bd ebde e43b
00000100: 1e09 89bc afbc 69be b1e0 ddbb a46f 5b3d
00000110: af04 f0bd b956 01be 7d12 273d 789f e03d
00000120: 367d e6bc 5195 92bd 8f8f 213d 44eb c0bd
00000130: 84c3 9bbd 5791 ecbc 253b 5bbe 44dc 7cbe
00000140: 4053 ffbc 93eb 15bd 804a 75bd 6c00 003d
00000150: 6679 8d3c 5f1c ebbb e30c 0fbd 1aad 28bc
00000160: 4161 273c 2145 143d 0fda 97bd c582 733d
00000170: a581 3e3d e3b2 65be b45f 86bd 97cb 7d3d
00000180: 1476 dfbd 29e9 22bd af12 3dbd 42bb 97bd
00000190: 368c 8b3d 4f42 483d ba6e 93bd f7eb dfbc
000001a0: 4b95 fcbd 9b30 2cbd 6614 37be 348b b8bd
000001b0: 2c49 1fbc 0ea7 a03d eda1 0ebd 2521 acbd
000001c0: 7f7a 123e 694d 0abd 10bc 69be 6c93 04bd
000001d0: e142 3c3e 3bcd 69bd 4ef1 ddbc 6c17 b2bb
000001e0: d53e 75be 9a2a 23be 2ae0 9abd b3da 52be
000001f0: 33bb 5dbd 5250 b1bc 9deb 7dbe 46d1 1dbe
00000200: 343b f5bd b1bf efbd a088 40be 3904 e2bd
00000210: 7c69 abbd b456 00be fc14 dfbd d4ed c7bd
00000220: bd2e 37be ed05 18bd b641 cabd 7d45 87bd
00000230: 2dbb 34be d231 d4bd 0d4b 54be dc17 45bd
00000240: fd4b 0f3d 1cd5 23bd 1e5e bebc ed5b 31bd
00000250: 60fd 90bd 4367 9abc e822 40be 9ae6 16bd
00000260: fb22 ffbd c0d4 6f3d aeb5 20bd 8b52 2abd
00000270: 8a51 cc3c 31ff 893c bf96 633a 3480 4abd
00000280: 0772 40bc d50d 5f3b 3259 37be c27b 8ebd
00000290: cae0 8ebd 8205 a6bc 8a6f 29bd d6c3 f3bc
000002a0: 6e3b cabd 4630 e6bd 56ce ef3c 6835 d4bd
000002b0: 3dae 97be d898 65bd 21db 2ebe 6e4b d7bd
000002c0: 4ab6 65be 2f1e 0fbe 5c66 2bbe 2de0 5bbe
000002d0: e4c6 e6bd c1ea b0bc 3117 febd 31ef c6bd
000002e0: 58f1 92bd c1e1 b13b 7270 59be 93ea 043d
000002f0: 4a0c 343d 2dc7 6fbd e9ef 93bc 73ce 613d
00000300: eff6 8e3c c002 323d d846 4abb d46b 8f3c
00000310: 482c 8a3c 9bd3 1bbd 48de 5fbc 1658 5f3d
00000320: b6ca 893d 0023 aa3c e605 5fbc 0d7f 313d
00000330: 41f5 0cbc 404e 493d 7fd1 953c 1c1a 64be
00000340: f396 ba3d e3bb 883c 9467 a1bd e1d6 c53c
00000350: 8b69 f5bc a28f 1abd fb43 0fbe b61c 8a3d
00000360: 3690 0c3d f63a 7ebc e0dc d73a 574d 18bd
00000370: 3daa 9c3c 3c3d ffbc 4d1a 05bd 4248 1f3d
00000380: f5f6 ad3c d69c fabd c98b 2dbe a8d9 1dbe
00000390: ad06 54be d896 90be ab59 46be d55d 96be
000003a0: 07af 2ebe 4cbf 5dbe 4689 2bbe d9ec 97bc
000003b0: fded 41bd 665a 28bd 05be 103c 9a77 ecbc
000003c0: e4a8 00be b32d 24be c608 c0bd cef7 4cbc
000003d0: 9ed5 c2bd 2a8a 923c 20aa f4bd 9e04 16be
000003e0: 6e09 723b d93f 4cbe b1e6 81bd 539b 333d
000003f0: b66b 133d 73a7 d7bd 6eb1 4dbe 53d9 473d

7.bias f4 [32]
-0.03948407 0.034743156 -0.032881223 -0.03789318 0.029687293 -0.09159622 0.03533403 0.11614394
-0.02839803 0.054207947 -0.01879709 -0.05026303 0.04003249 -0.09317475 0.07061143 -0.008765334
-0.053860087 -0.008309308 -0.058653913 0.025331413 -0.037746813 -0.035691667 -0.034503642 0.0624452
-0.009585129 -0.06402267 -0.048240703 -0.016003208 0.00390654 0.016548388 0.09510147 0.063704215
00000000: 0cba 21bd d74e 0e3d 76ae 06bd e135 1bbd
00000010: c432 f33c cd96 bbbd 6aba 103d e0dc ed3d
00000020: fca2 e8bc 2709 5e3d 5bfc 99bc 9be0 4dbd
00000030: 1cf9 233d 67d2 bebd ba9c 903d 7a9c 0fbc
00000040: 659c 5cbd c423 08bc 163f 70bd d383 cf3c
00000050: 679c 1abd 6d31 12bd b153 0dbd 8ac6 7f3d
00000060: f20a 1dbc 511e 83bd 0b98 45bd 2919 83bc
00000070: 6f02 803b 7c90 873c 8fc4 c23d 5b77 823d

11.weight f4 [10, 1568]
0.02385425 0.07952955 0.069799855 0.0344447 0.012242097 0.052480113 0.0297161 0.008179969
0.033559084 0.05646546 0.07184472 0.028433567 0.047177073 -0.00842188 0.023459079 0.07959368
0.09343181 -0.03206985 0.28565168 0.084891476 0.010129211 0.0054228315 -0.028986152 0.011740095
0.009917228 0.17756508 0.037741188 -0.047949202 -0.034394175 0.041153 -0.015428009 -0.032115
0.03313044 0.030832006 -0.013713999 0.0345874 0.19882563 0.12657663 -0.041038696 -0.016125973
-0.031437404 0.02908917 0.048315972 0.013894112 0.01740148 -0.01627597 -0.026065301 0.012919765
0.031204032 0.027820472 0.08604132 -0.13810964 -0.17391352 -0.08021747 -0.053286146 -0.07929007
0.077250555 -0.038710773 -0.18177804 -0.21184064 -0.11340007 0.07301103 -0.014358007 -0.08299035
-0.06356869 0.04187621 0.0013830776 -0.1060874 0.006013569 -0.058335714 -2.6265267e-05 0.07935629
-0.06473616 0.032821372 -0.07264524 -0.24279557 -0.013498281 -0.036495425 0.11964988 -0.16285852
0.12966242 -0.07596748 -0.20554608 -0.09284303 0.03475728 -0.03421218 0.070319 0.09734113
0.013765936 0.0060315365 -0.25005195 0.12691437 -0.07870399 -0.026058076 -0.5086207 -0.22980788
0.0139586665 0.071822315 0.00844172 -0.02229677 -0.17585544 -0.05670264 0.20090538 0.064257875
-0.08106517 -0.043955166 0.017802453 0.062585376 0.08364446 -0.008437402 -0.033815447 0.017955478
-0.09019127 -0.02285899 0.1308705 0.13655339 -0.12739204 -0.19095983 -0.00089605484 0.08824848
0.08337178 -0.20027131 -0.2799068 -0.13240357 -0.18813276 -0.094261535 -0.080313616 -0.14700902
-0.06970026 -0.038479634 0.07047133 -0.23826405 -0.2284871 -0.19495085 -0.32672468 -0.20633884
-0.053629134 -0.0039058686 -0.0071599754 -0.060623378 -0.13585511 -0.3449661 -0.3218949 -0.08899831
0.0693772 0.11240816 -0.0077462452 0.011503876 0.078709446 -0.030469723 -0.059742834 0.062492985
0.00576166 0.06966052 -0.0335325 0.0016343577 0.11490967 -0.0017516238 0.07972987 0.032738347
0.12276974 0.23024997 0.06356889 -0.07403333 -0.0018555332 -0.09706153 -0.21085726 0.013716337
-0.013325887 -0.025109623 -0.005358299 -0.13947293 -0.17133728 -0.49436042 -0.15146352 -0.10674084
-0.11341361 -0.29846987 -0.13960661 -0.300827 -0.07790989 -0.008469795 -0.17303513 -0.18111779
0.025134789 0.32764968 0.16748863 0.045750447 -0.020394951 -0.0012278956 -0.06118434 -0.059202805
0.13129562 0.064720675 -0.083556786 -0.06385574 -0.038585078 -0.0040972712 -0.0029439444 -0.005431082
-0.046236083 0.07189913 0.17679805 -0.0024931394 0.00010832577 -0.16351222 -0.033605017 -0.103646114
-0.06384076 -0.041484073 -0.05103576 -0.29509073 -0.09988165 0.019286508 0.012186134 -0.0732505
-0.025963137 -0.26981744 -0.34648404 0.02085085 0.0064365687 -0.27120903 -0.23792689 -0.10362542
-0.08371709 -0.068206124 -0.09356676 -0.119276315 -0.14715305 -0.054155406 -0.019122975 -0.09990236
0.030783063 0.041189704 0.059697337 0.03461812 0.10841445 -0.15807697 0.096311286 0.089326136
0.10227356 0.17396514 0.077959746 -0.03238826 0.08669685 -0.034983892 -0.09570506 -0.08181464
-0.011469559 0.0033455924 0.13959181 0.04918599 -0.042916838 0.06994728 0.07852287 0.052057143
00000000: fd69 c33c 64e0 a23d 3af3 8e3d e315 0d3d
00000010: 1493 483c 63f5 563d 2e6f f33c 4705 063c
00000020: 4075 093d 5448 673d 5323 933d 83ed e83c
00000030: bf3c 413d edfb 09bc 412d c03c 0302 a33d
00000040: 2d59 bf3d ad5b 03bd f040 923e 95db ad3d
00000050: fdf4 253c 02b2 b13b 5e74 edbc 8759 403c
00000060: de7b 223c 9fd3 353e 8196 1a3d 6266 44bd
00000070: e8e0 0cbd 0c90 283d c3c5 7cbc 058b 03bd
00000080: c9b3 073d 6793 fc3c aeb0 60bc 84ab 0d3d
00000090: f298 4b3e 4e9d 013e 3118 28bd 9e1a 84bc
000000a0: 82c4 00bd 694c ee3c f8e6 453d 21a4 633c
000000b0: 8c8d 8e3c 2f55 85bc e686 d5bc 6cad 533c
000000c0: 999f ff3c c2e7 e33c 6e36 b03d 9d6c 0dbe
000000d0: 6316 32be 0f49 a4bd 9342 5abd d562 a2bd
000000e0: 8a35 9e3d 308f 1ebd 0624 3abe c1ec 58be
000000f0: 4c3e e8bd cf86 953d d93d 6bbc d8f6 a9bd
00000100: 4d30 82bd 6486 2b3d 6248 b53a 5a44 d9bd
00000110: 790d c53b 6ef1 6ebd 3b54 dcb7 8d85 a23d
00000120: 6494 84bd b46f 063d 07c7 94bd 679f 78be
00000130: e527 5dbc 3a7c 15bd ff0a f53d 62c4 26be
00000140: 3ac6 043e d794 9bbd ac7a 52be 7d24 bebd
00000150: a65d 0e3d 1222 0cbd 6803 903d c95a c73d
00000160: 858a 613c 32a4 c53b cf06 80be d7f5 013e
00000170: 8f2f a1bd bf77 d5bc f734 02bf c252 6bbe
00000180: e4b2 643c 9417 933d 244f 0a3c b7a7 b6bc
00000190: 7313 34be 0741 68bd 24ba 4d3e a299 833d
000001a0: 7f05 a6bd 550a 34bd 73d6 913c c32c 803d
000001b0: c94d ab3d 073d 0abc 1182 0abd 5e17 933c
000001c0: 33b6 b8bd c742 bbbc eb02 063e a7d4 0b3e
000001d0: 0f73 02be f98a 43be 39e5 6aba 9ebb b43d
000001e0: d3be aa3d ec13 4dbe f24f 8fbe cd94 07be
000001f0: e0a5 40be 310c c1bd 777b a4bd 8889 16be
00000200: 03bf 8ebd d29c 1dbd 4653 903d 7efb 73be
00000210: 86f8 69be 32a1 47be 7548 a7be 7d4a 53be
00000220: 39aa 5bbd 9af9 7fbb 3a9e eabb 3850 78bd
00000230: 9a1d 0bbe 669f b0be 69cf a4be bf44 b6bd
00000240: a215 8e3d 4036 e63d 37d4 fdbb c17a 3c3c
00000250: 6b32 a13d a49b f9bc e7b4 74bd a5f8 7f3d
00000260: 4fcc bc3b 2daa 8e3d 6059 09bd f237 d63a
00000270: c355 eb3d be96 e5ba 6a49 a33d a518 063d
00000280: b46e fb3d a6c6 6b3e 6830 823d c99e 97bd
00000290: 5d35 f3ba 32c8 c6bd f7ea 57be 7dba 603c
000002a0: d254 5abc b2b2 cdbc ab94 afbb fed1 0ebe
000002b0: 0a73 2fbe cf1c fdbe 4119 1bbe f19a dabd
000002c0: 6545 e8bd 0bd1 98be 09f5 0ebe ff05 9abe
000002d0: 388f 9fbd e5c4 0abc 1f30 31be f176 39be
000002e0: 79e7 cd3c b3c1 a73e 2482 2b3e d264 3b3d
000002f0: 5013 a7bc 57f1 a0ba 6e9c 7abd a47e 72bd
00000300: 5c72 063e 468c 843d d21f abbd ccc6 82bd
00000310: 630b 1ebd 6742 86bb 31ef 40bb 38f7 b1bb
00000320: 0c62 3dbd da3f 933d 8c0a 353e f063 23bb
00000330: f42c e338 bf6f 27be 6aa5 09bd 6a44 d4bd
00000340: f2be 82bd 34eb 29bd e00a 51bd 2216 97be
00000350: c08e ccbd bdfe 9d3c 5aa8 473c 5c04 96bd
00000360: a5b0 d4bc 8325 8abe 5b66 b1be 67cf aa3c
00000370: dae9 d23b e9db 8abe 1ba3 73be 9039 d4bd
00000380: de73 abbd a7af 8bbd ee9f bfbd 2447 f4bd
00000390: 4aaf 16be 0fd2 5dbd c9a7 9cbc 9c99 ccbd
000003a0: c32c fc3c 89b6 283d 3285 743d bbcb 0d3d
000003b0: 6508 de3d eede 21be da3e c53d 9ff0 b63d
000003c0: cd74 d13d eb23 323e 5ca9 9f3d 8da9 04bd
000003d0: 1e8e b13d 454b 0fbd 0401 c4bd 6f8e a7bd
000003e0: d1ea 3bbc ba41 5b3b 28f1 0e3e 4077 493d
000003f0: 91c9 2fbd 8540 8f3d 99d0 a03d df39 553d

11.bias f4 [10]
0.015943399 0.2426192 -0.042246707 -0.10784215 -0.011439595 -0.036236465 0.025417484 0.06683829
-0.045934454 -0.10707392
00000000: bb9b 823c 2b71 783e e20a 2dbd 58dc dcbd
00000010: 246d 3bbc b06c 14bd 5438 d03c 83e2 883d
00000020: c425 3cbd 9249 dbbd
